…
Sensitivity = 0.975
GB2 Validate **:TEST | AUC Score: 0.966
  No Skill : ROC AUC=0.500
GB2 Validate ** : ROC AUC=0.966
2 Step Final Confusion Matrix:
24104 1487
3 39
Specificity = 0.9418936344808722
Sensitivity = 0.9285714285714286
2 Step Algorithm:TEST | AUC Score: 0.935
  No Skill : ROC AUC=0.500
    2-Step : ROC AUC=0.981
Input shape: (29, 1)
Model: "sequential_1"
_________________________________________________________________
Layer (type)                 Output Shape              Param #   
=================================================================
conv1d_1 (Conv1D)            (None, 20, 32)            352       
_________________________________________________________________
batch_normalization_1 (Batch (None, 20, 32)            128       
_________________________________________________________________
max_pooling1d_1 (MaxPooling1 (None, 10, 32)            0         
_________________________________________________________________
dropout_1 (Dropout)          (None, 10, 32)            0         
_________________________________________________________________
conv1d_2 (Conv1D)            (None, 9, 64)             4160      
_________________________________________________________________
batch_normalization_2 (Batch (None, 9, 64)             256       
_________________________________________________________________
max_pooling1d_2 (MaxPooling1 (None, 4, 64)             0         
_________________________________________________________________
dropout_2 (Dropout)          (None, 4, 64)             0         
_________________________________________________________________
flatten_1 (Flatten)          (None, 256)               0         
_________________________________________________________________
dense_1 (Dense)              (None, 64)                16448     
_________________________________________________________________
dropout_3 (Dropout)          (None, 64)                0         
_________________________________________________________________
dense_2 (Dense)              (None, 1)                 65        
=================================================================
Total params: 21,409
Trainable params: 21,217
Non-trainable params: 192
_________________________________________________________________
128/688 [====>.........................] - ETA: 0s688/688 [==============================] - 0s 130us/step

And the Train Score is  100.0 %
…
           1       0.02      0.98      0.04       106

    accuracy                           0.92     59810
   macro avg       0.51      0.95      0.50     59810
weighted avg       1.00      0.92      0.96     59810

Specificity = 0.9188329090178212
Sensitivity = 0.9811320754716981
CNN:TEST | AUC Score: 0.995
  No Skill : ROC AUC=0.500
       CNN : ROC AUC=0.995
Model: "sequential_2"
_________________________________________________________________
Layer (type)                 Output Shape              Param #   
=================================================================
dense_3 (Dense)              (None, 16)                480       
_________________________________________________________________
dense_4 (Dense)              (None, 18)                306       
_________________________________________________________________
dropout_4 (Dropout)          (None, 18)                0         
_________________________________________________________________
dense_5 (Dense)              (None, 20)                380       
_________________________________________________________________
dense_6 (Dense)              (None, 24)                504       
_________________________________________________________________
dense_7 (Dense)              (None, 1)                 25        
=================================================================
Total params: 1,695
Trainable params: 1,695
Non-trainable params: 0
_________________________________________________________________
128/688 [====>.........................] - ETA: 0s688/688 [==============================] - 0s 41us/step

And the Train Score is  96.94767594337463 %
…
           1       0.04      0.97      0.07       106

    accuracy                           0.95     59810
   macro avg       0.52      0.96      0.52     59810
weighted avg       1.00      0.95      0.97     59810

Specificity = 0.9538556880611014
Sensitivity = 0.9716981132075472
DNN Simple:TEST | AUC Score: 0.994
  No Skill : ROC AUC=0.500
DNN-Simple : ROC AUC=0.994
Model: "sequential_4"
_________________________________________________________________
Layer (type)                 Output Shape              Param #   
=================================================================
dense_11 (Dense)             (None, 16)                480       
_________________________________________________________________
dense_12 (Dense)             (None, 18)                306       
_________________________________________________________________
dropout_5 (Dropout)          (None, 18)                0         
_________________________________________________________________
dense_13 (Dense)             (None, 30)                570       
_________________________________________________________________
dense_14 (Dense)             (None, 28)                868       
_________________________________________________________________
dropout_6 (Dropout)          (None, 28)                0         
_________________________________________________________________
dense_15 (Dense)             (None, 30)                870       
_________________________________________________________________
dense_16 (Dense)             (None, 28)                868       
_________________________________________________________________
dropout_7 (Dropout)          (None, 28)                0         
_________________________________________________________________
dense_17 (Dense)             (None, 20)                580       
_________________________________________________________________
dense_18 (Dense)             (None, 24)                504       
_________________________________________________________________
dense_19 (Dense)             (None, 1)                 25        
=================================================================
Total params: 5,071
Trainable params: 5,071
Non-trainable params: 0
_________________________________________________________________
128/688 [====>.........................] - ETA: 0s688/688 [==============================] - 0s 62us/step

And the Train Score is  97.67441749572754 %
…
           1       0.03      0.97      0.06       106

    accuracy                           0.94     59810
   macro avg       0.51      0.96      0.51     59810
weighted avg       1.00      0.94      0.97     59810

Specificity = 0.9415617044084148
Sensitivity = 0.9716981132075472
DNN Complex:TEST | AUC Score: 0.981
  No Skill : ROC AUC=0.500
DNN-Complex : ROC AUC=0.981
Model: "sequential_5"
_________________________________________________________________
Layer (type)                 Output Shape              Param #   
=================================================================
dense_20 (Dense)             (None, 15)                450       
_________________________________________________________________
dense_21 (Dense)             (None, 7)                 112       
_________________________________________________________________
dense_22 (Dense)             (None, 7)                 56        
_________________________________________________________________
dense_23 (Dense)             (None, 31)                248       
_________________________________________________________________
dense_24 (Dense)             (None, 1)                 32        
=================================================================
Total params: 898
Trainable params: 898
Non-trainable params: 0
_________________________________________________________________
 32/688 [>.............................] - ETA: 0s688/688 [==============================] - 0s 43us/step

And the Train Score is  96.65697813034058 %
…
